torch_GestureModel.pth (torch, 45124 bytes, 6 tensors)

lstm.weight_ih_l0 f4 [128, 47]
00000000: e2c5 333d e28b cabb 4314 183e 6905 ee3d
00000010: ffb6 eb3b 8bf8 17be f06d 3b3e bdeb 2cbc
00000020: ca7f 873e 1275 843d 5233 c7bd d4f5 6abe
00000030: c1c2 4a3e 4c11 203e a57a 12be 766d 8fbd
00000040: c7e9 3bbe 7a9d 733e 28ec 2d3e 5c11 03be
00000050: 0001 513e a151 18be fc51 99bd 7c8d 8abd
00000060: ea71 36be 920b 103e 224d 19be 6133 adbe
00000070: ef28 3c3d 73cc 573d e42a 83be d45e 17be
00000080: c047 96be ccb2 3cbd e540 62bd e9ed 89be
00000090: 2ee2 34be 3105 f2bc 0908 713d 5019 2d3e
000000a0: 53ec 91bd 9da3 04be 5a8b 14be 962b ce3d
000000b0: 36b0 0fbe 9fd7 9a3d 4f30 733e c4e9 2abe
000000c0: 5dc7 04bd 2554 983c e117 413d e707 073e
000000d0: 3aa1 a43e 2bdd 86bd 9a3d 283b 66d8 433e
000000e0: a9c5 5d3e 2651 febd a669 cf3d b754 203e
000000f0: ab6a 37bc 328a c33c ecb7 1e3e fb2b 78bd
00000100: 7159 403e 26bd b53d 8461 bc3b e5fb b43d
00000110: 041b 24bd 673e fcbd b716 ddbd 2af1 1ebe
00000120: 7c77 56be 0a6c bf3d a741 1e3e 6adc 4b3e
00000130: 5a78 ccbd 7b22 9f3d 2c3c 05be 3f6b 5cbd
00000140: 143e 1fbe 3947 233d 1f43 d3bd 86e4 8cbd
00000150: 8080 4b3d a2d0 64bd 550c 863d f4d4 b93d
00000160: 7a94 f5bd 9219 0f3e 076c 8e3d b40b cfbd
00000170: 17a6 bc3d b0e2 82bd a275 dc3d 4692 f0bc
00000180: 0957 64bd d482 0a3d 30d5 a33d 7fdc 77bd
00000190: e54c 033e 18a8 863c e622 61bc f0bb 653d
000001a0: f7bf 16be f30b 26be 18ff a7bc ebb5 41bd
000001b0: 4917 3b3d 76f8 9cbb 2826 373e d021 3cbe
000001c0: 30e3 3e3d b42f 9abd 5568 10be 50a1 5abe
000001d0: 904e 9d3c f865 18be 9cfa 29bc e1e9 33be
000001e0: 9719 cfbd af9c 10bc 57d9 41be 1e8a 8b3d
000001f0: f57f 6abe 8a35 a8bc ecc7 5fbd fb29 1abd
00000200: 6fcf aebc 75cf 653e 126e 5fbe a46d 8bbc
00000210: f925 41be 8a39 ecbc 6221 ef3d 916d 03be
00000220: e11d 303e 0381 173e 7d94 1b3e d5bd d4bd
00000230: 8a5b ea3d c53e f73d 96e2 2c3e 5e47 b23d
00000240: 5de4 1e3e 15da f9bc 591b 5e3d 61bf a8bc
00000250: 5d72 65be faa8 37bd 4f92 55be 2620 bd3d
00000260: a454 8ebe 1722 ba3d 65fe 7a3d 6038 783c
00000270: f455 1d3e 5dee 97bd 80e0 2ebd 7861 35bd
00000280: 47f9 d8bd a161 da3c 6398 003d 808e 6ebd
00000290: aa34 073e 6f4c babd 78a2 e13d 4c6b 1a3e
000002a0: 4b0d 35be 54d8 c7bc 978f d63d b1f3 0dbe
000002b0: 4e27 0a3e 71c1 a2bc dc0c a2bd d63c 1dbe
000002c0: a225 aebd 6d42 e03b 3a3e 2e3e a2f3 7dbd
000002d0: 0b23 233e 625d 293e bfca 02be 6818 e93d
000002e0: 01d4 27bd 8a0f 21bc 006d d23d 1bda a73d
000002f0: 66ab 133d f653 0ebe c65b e13c b2b4 04be
00000300: 6c22 0b3d 1129 26ba f047 413d 473f d4ba
00000310: 058c 4dbe 4afc c2bd 67f9 3e3d 917a 8fbe
00000320: 63e6 7fbd c3ac f6bd 4341 b13c c957 0a3e
00000330: ab0f ff3d f907 09bc b976 9d3d d690 85be
00000340: eb34 36be 7dd8 603d c1d8 20be c7fa dd3c
00000350: aee6 c33b 3348 523d 2ac2 1a3e 161a a1bd
00000360: e4df 32be 6ffe 073c 8971 46be d736 533e
00000370: 6281 fa3d 9bf3 543d a1b7 be3a f586 ccbd
00000380: eeab b63d e45d d7bd d270 45be 0c58 393d
00000390: 2d61 5c3d db84 68be 3168 3fbd 5ee2 42bd
000003a0: 18e2 903d 9a33 e43c 5984 a53d 28b2 43be
000003b0: 1571 a3bd 8803 21be da92 3cbe c66c e6bc
000003c0: 5f99 38be 668f 5a3c 27ad 8ebd 246b bcbd
000003d0: a7bf 063e 95a7 eabd 91a8 833d f864 433d
000003e0: 560f ae3d 770b f1bd f27b 9abc cb3c d8bd
000003f0: 0f89 e0bd 2e4b 493e 1f9d 4ebd bb87 9c3e
0.043889888 -0.006181226 0.14851479 0.11622126 0.0071934457 -0.14840905 0.18303657 -0.010554251
0.26464683 0.06467642 -0.097265854 -0.22945338 0.19800855 0.15631598 -0.14304598 -0.070033
-0.18350898 0.23790541 0.16984618 -0.12799591 0.20410538 -0.14874889 -0.074863404 -0.06765267
-0.17816892 0.14066914 -0.1497083 -0.33828261 0.045937475 0.052685212 -0.2561866 -0.14782268
-0.29351616 -0.04606895 -0.05523767 -0.26939324 -0.17664406 -0.029543491 0.058845554 0.16904187
-0.071251534 -0.12953039 -0.14506283 0.10066907 -0.14032063 0.07560658 0.23748897 -0.16690737
-0.03241669 0.01859481 0.047141913 0.13186608 0.32154256 -0.06585153 0.0025671483 0.19125518
0.21657433 -0.124178216 0.10127573 0.15657316 -0.011194865 0.023869608 0.15499848 -0.060588818
0.18784119 0.08873968 0.0057489295 0.088371076 -0.040064827 -0.1231659 -0.10795348 -0.15521684
-0.20944017 0.09346779 0.15454732 0.199083 -0.09983893 0.077702485 -0.13011235 -0.053813215
-0.15551025 0.039862845 -0.10315537 -0.06879525 0.049683094 -0.05586303 0.06545321 0.09073821
-0.1199121 0.13974598 0.06954198 -0.10109654 0.092113666 -0.063908935 0.10764624 -0.029366624
-0.055747066 0.033816174 0.07999647 -0.060513016 0.12822302 0.016437575 -0.013741231 0.056087434
-0.14721666 -0.16215496 -0.02050738 -0.04729263 0.045676503 -0.004790361 0.17885649 -0.18372273
0.04660338 -0.0752863 -0.141023 -0.21350598 0.0192025 -0.14882648 -0.010374691 -0.17569686
-0.10112303 -0.008826419 -0.18930565 0.06813453 -0.22900374 -0.020533342 -0.05463402 -0.037637692
-0.021339146 0.2244242 -0.21819332 -0.017020054 -0.18862142 -0.02883603 0.11676289 -0.12834765
0.17198898 0.14795308 0.15193363 -0.1038777 0.11443241 0.12072519 0.1688331 0.087050185
0.15516801 -0.030499497 0.0542253 -0.02059907 -0.22406907 -0.044838883 -0.20856594 0.092346475
-0.2779895 0.09088533 0.061277766 0.01515016 0.1536482 -0.07418511 -0.04269457 -0.044282407
-0.10594421 0.026657881 0.031395327 -0.058241367 0.13203683 -0.0909661 0.110173166 0.15079993
-0.17680852 -0.024395145 0.10476606 -0.13862492 0.13491556 -0.01986763 -0.07912609 -0.15355238
-0.08503272 0.006843856 0.17015925 -0.061999924 0.15931337 0.16539529 -0.12772654 0.11381608
-0.040973667 -0.009830365 0.10274696 0.08195897 0.03605213 -0.13899216 0.027509581 -0.12959555
0.033968374 -0.0006338517 0.047187746 -0.0016193175 -0.20072944 -0.095207766 0.046624567 -0.28023198
-0.062475573 -0.120446704 0.021637565 0.1351005 0.1245416 -0.008363717 0.0768866 -0.26087064
-0.17793624 0.05489396 -0.15707685 0.027097119 0.005978427 0.051338386 0.1511313 -0.078663036
-0.1746822 0.008300408 -0.19379248 0.20626388 0.12231709 0.051990133 0.0014550575 -0.099866785
0.08919512 -0.10515955 -0.19281319 0.045249984 0.05380361 -0.2270693 -0.046730224 -0.04757916
0.07074374 0.027856637 0.08081884 -0.1911093 -0.07980553 -0.15724003 -0.18415394 -0.02812804
-0.18027256 0.013339853 -0.0696662 -0.09200123 0.13159047 -0.11457745 0.06428636 0.047703713
0.08499019 -0.11769765 -0.01885793 -0.1055847 -0.10963642 0.19657585 -0.05044281 0.30572304

lstm.weight_hh_l0 f4 [128, 32]
00000000: 0912 f0bc b093 00bd dd14 55be 6323 2dbe
00000010: 15d4 76be 6bab 23be 602d b7bd 91ec 1fbd
00000020: 1816 60bd f60d 173e c2dc d2bd 4285 403e
00000030: b104 643e a988 62bc 263d 68be 62e0 563e
00000040: 95dd 123e c551 613d de57 943c 981b c9bc
00000050: 6e62 4bbe 8468 84bd 5494 12be 5609 133e
00000060: 28f0 b1bd d29f 203d 87b1 66bd a1d4 9b3e
00000070: a24e 6abd c9c4 f63c 09dc c03c 43c8 11be
00000080: e9c2 e2bd 340f 303d f0da c2bd c03b 9dbc
00000090: 67b4 bf3d ac38 36bd 36cc 9c3d da90 083c
000000a0: 41b9 033e d9a0 06be 559c f53b 4a59 5cbd
000000b0: 5914 e93d e66b acbd 23b4 883d 00b4 f9bd
000000c0: fea4 5c3c c7aa d2bd 6e04 193e 0727 483d
000000d0: 7ae5 4bbe 26ad 80bd 6a2f c33d 2fa6 8a3d
000000e0: 557a d33d ac1e 373d 4340 113e 3a7d fabd
000000f0: 55b3 38bb d6c7 5cbe 2f04 fb3d 6944 07be
00000100: b12e d13d a831 463e a5bb 083e e417 223e
00000110: 3f43 453d e705 a0be 50c7 6dbc 0bda 4a3e
00000120: 7e6b 333e 23d0 fbbd af0b 2b3e e21c 28bd
00000130: 4f1a 36be ad0b 1a3c f2f5 a7bd 6c13 4b3d
00000140: efc4 22be 15c1 fbbd 4ee9 4cbd e3e7 dbbc
00000150: cacf c6bd cce8 02bd 3cb8 3f3d 3316 99bd
00000160: c729 17bc 7fe3 a5bb a6ad a03d e281 cfbd
00000170: 9802 35be 11dd d0bd ceec 77bd 315d d539
00000180: bc04 803c 303f 8d3d 94a4 023e 1cf0 d8bd
00000190: 7ed5 78be 63fe 57be 2389 343d d142 f43d
000001a0: e838 07be b1e8 f4bc 265c 84be b787 5ebe
000001b0: 591e 9b3d 1f87 56be 0ca4 413e 359b 163d
000001c0: 07bf b53e 4d28 703e 8426 943e 1c01 56bd
000001d0: ea12 48be 3b89 e8bd 1c72 863e 0617 97be
000001e0: 443b 40be 3d4a a6be 9f5a 4fbe acf1 613d
000001f0: 04f5 e3bd aa8f 4cbe f784 1abe 4436 3c3e
00000200: 4976 bebd c7a2 94be 514d 843d a3fa db3c
00000210: 48a0 5bbe 27c8 fabd eeb4 143e 4b70 c8bd
00000220: 4f87 7fbd 1cba d3bd da62 c7bd 2b6c 933e
00000230: c40d 623d c4ec 233e eeed 03be 8660 0fbe
00000240: 20da dbbd 93da ca3d 411d 5a3d 9876 2c3e
00000250: baa5 0abe 02d6 2bbd fd23 5fbc 82b7 083e
00000260: e455 093e 695f c5bd cc4d 223e ba94 ddbd
00000270: b739 28be c099 19be e79b b83e 429d 96bc
00000280: 40b8 77bd 22fa eabd 77f5 20be 60a5 f83d
00000290: 385f 14be 9597 2b3e 66dd a63c 97ea 6cbe
000002a0: 5314 8dbd 2c46 05bd 8691 c0bd d267 2f3c
000002b0: b08f 63be 6157 3abd a480 a4bd fe46 103d
000002c0: 4bb5 8c3e 731c fe3d 36e8 09be a5d1 53bd
000002d0: ca62 fe3e 1ea4 ab3d e19d a1be 0a5e 3bbd
000002e0: 1e4a 173e 172f af3d e5c3 8f3e e13c 173e
000002f0: a014 e9bd 4d32 313e 22a4 c3bd bc23 81be
00000300: 908c a03d 9b15 9f3c d1c9 c73d 8338 22be
00000310: c4f1 173e 2b27 cdbd 6a83 4c3e cd40 04bd
00000320: a912 633e 4c8c 113d f561 bfbd 1384 ab3d
00000330: 3cdf 91bd 41b5 d43d 8d30 28be 7b88 a73d
00000340: a989 7f3c f7e0 28be 4a0f 753c 15cc 69bc
00000350: 166f 483d 9f4b 733e 3ef4 cfbb 2cc8 a63d
00000360: 57f1 90bd 2cdb a53d af2c 88bd a84a 4dbe
00000370: 646f 1f3d fd87 193d 14a0 69be 1216 353b
00000380: 0424 ebbd b385 043e 1539 cd3d 6ce3 6dbb
00000390: 42d0 713e 748b a33d 265f 1d3e a9c9 223e
000003a0: 8f57 cd3b 5c34 a93b fcaf 88bd 1cbc c43d
000003b0: d9af 8e3c 3efc 3cbe 4992 1e3d 076f c83d
000003c0: c77d 6bbd d562 353e 5ffe 57bd ab28 e43d
000003d0: 9203 74bd f0ed 86be 3c8f 693e 7e50 4ebe
000003e0: 22a4 fb3d 0f0d ffbd 30cc 4a3e cb49 57be
000003f0: 8603 ae3d 7ac0 403e ea85 45be 66c0 b43d
-0.029305475 -0.031390846 -0.2080874 -0.1690803 -0.2410434 -0.1598336 -0.089442015 -0.039043967
-0.05470857 0.1475142 -0.102960125 0.18800834 0.22267415 -0.013826528 -0.22679576 0.20984033
0.1434234 0.055009622 0.018108305 -0.02454929 -0.19861767 -0.06465247 -0.14314395 0.1435903
-0.08688384 0.039214917 -0.056321647 0.3043566 -0.057203896 0.030123131 0.023542421 -0.1423655
-0.110723324 0.04298325 -0.09514415 -0.01919353 0.09360581 -0.04448764 0.07656138 0.008335317
0.12863638 -0.13147296 0.007495443 -0.05379609 0.11380834 -0.084190175 0.06674983 -0.121925354
0.013467072 -0.102864794 0.14943096 0.048865344 -0.19911757 -0.062830254 0.09530528 0.06769978
0.10326067 0.044706985 0.1418467 -0.12230916 -0.0028183062 -0.21560606 0.12256657 -0.1320969
0.10213984 0.1935488 0.1335283 0.15829426 0.048159834 -0.31254503 -0.014512852 0.1980974
0.17521474 -0.12295558 0.16703676 -0.04104317 -0.17783473 0.009402198 -0.08201207 0.04957907
-0.15895437 -0.12292687 -0.050027184 -0.02684397 -0.09707601 -0.031960294 0.04680656 -0.07474937
-0.009226269 -0.00506252 0.07845621 -0.10132195 -0.1767677 -0.10198415 -0.06052857 0.0004069596
0.015627258 0.06896818 0.12758094 -0.10592672 -0.24300191 -0.21093135 0.044076096 0.11926807
-0.13205302 -0.029896112 -0.25851554 -0.21731459 0.07574148 -0.20949982 0.18910235 0.03676911
0.35497305 0.23452874 0.28935635 -0.05224715 -0.19538465 -0.113543 0.26258934 -0.29509753
-0.18772608 -0.32478514 -0.20249413 0.055162117 -0.111307174 -0.19976678 -0.15089785 0.18380076
-0.09299905 -0.2903044 0.064600594 0.026852911 -0.21447861 -0.12245207 0.14522144 -0.09787043
-0.0623849 -0.10338232 -0.09735651 0.28793463 0.05518891 0.16008288 -0.12883732 -0.14001665
-0.107349634 0.09904971 0.053250555 0.16842115 -0.13539782 -0.04195214 -0.01361942 0.13351253
0.13411671 -0.09637339 0.1584999 -0.10819383 -0.16428266 -0.15000057 0.36056444 -0.018385533
-0.06047845 -0.1147349 -0.15718637 0.12140918 -0.14489448 0.16757043 0.020369243 -0.23136364
-0.06888642 -0.032537624 -0.094027564 0.010705905 -0.22222781 -0.045493487 -0.08032349 0.035223953
0.27482066 0.1240777 -0.13467488 -0.051713604 0.49684745 0.08380912 -0.31565765 -0.04574398
0.14774367 0.085539035 0.28079143 0.14769317 -0.11380887 0.17304344 -0.0955279 -0.25222576
0.0783931 0.019419482 0.0975529 -0.1584187 0.1483832 -0.10017236 0.19972005 -0.03228836
0.22175087 0.03553419 -0.09344856 0.083748005 -0.07122657 0.10386134 -0.1642477 0.081803285
0.015596786 -0.16492067 0.0149572585 -0.014269848 0.048934065 0.23759316 -0.0063462546 0.081436485
-0.07077282 0.08098444 -0.06649148 -0.2004801 0.03892459 0.037483204 -0.22814971 0.0027631563
-0.11481479 0.12941627 0.10020653 -0.0036298884 0.236146 0.07985583 0.15368327 0.1589724
0.0062665413 0.0051637124 -0.06674191 0.096061915 0.017417835 -0.18455598 0.038713727 0.09786802
-0.057492997 0.17713483 -0.05273282 0.11140569 -0.059573717 -0.26353407 0.22808546 -0.20147893
0.12287165 -0.124536626 0.19804454 -0.21024244 0.08496766 0.18823424 -0.19289365 0.088257596

lstm.bias_ih_l0 f4 [128]
00000000: 2fd6 aa3d 29d5 42bc a051 d6bc a008 833d
00000010: 0756 533e d300 9ebc 1444 403e f59d de3d
00000020: 8e76 033c 02d5 513d 61f6 643c face c4b9
00000030: 8880 633e 98d5 2a3e 47ef 103e 3ffb 673d
00000040: 180b 63ba 4af8 df3d ebcb ffbd a29e 093e
00000050: 4599 363e 941a 7c3d 58b4 473d f4ab 883d
00000060: d09a d03d fab1 35bd 7d2a b8bd eaea 193e
00000070: 92a1 323e 255d 4d3e dd15 8ebd 5b3b d43d
00000080: 78f0 ef3d 0073 33bc 3e7b 1b3d 6ffa 103e
00000090: afa5 023e 5672 4abd 29bd 8ebd 2628 01be
000000a0: 4259 f63d 907d 153d 456a 833e 249f 443e
000000b0: d3a7 4f3e 39cf 073e f812 813d d1c0 3fbd
000000c0: 3c47 d7bd 29e2 7a3e 98e5 41bd eabe 983d
000000d0: 0cce c5bd 4a34 bebc 2f37 383e d482 163e
000000e0: 825c 5fbc a781 9a3e b1aa bb3d 0453 51bd
000000f0: 8bd9 9ebc ffd5 113e 1adc 60bd 4dd3 7e3e
00000100: f37b e03d 6fe2 82bd 014d 563e 2f33 07bd
00000110: 1bcd 1fbe 2537 49be 79c0 c23d ab77 953d
00000120: 4a1d c13c 5f23 81bd c625 5ebe 3fa7 933b
00000130: 2460 17be 3508 84be 5756 193e 211d f2bd
00000140: 09c8 913d 3828 be3d 8cd0 98bc b286 40be
00000150: aa6e b93d 775a 393e c51d 34be 0aa3 663e
00000160: 0be9 33be b11c e2bd 43fc 4b3e 3bee 93bd
00000170: 36f2 82be 05c7 3bbe 99d7 153e 3450 413d
00000180: d5e5 8b3e 1952 203e 7db2 893d 330c 01bd
00000190: ab40 343d 84c0 9f3c d8e6 34bd 4e49 e23d
000001a0: a16f b4bd b3ef 013d f996 3bbd ae6c 823e
000001b0: c993 2d3e c01c 3a3e f0ca 2d3e 1a42 913e
000001c0: 7632 243e 2b74 d13d 9230 0d3e a3a8 463d
000001d0: 4ee3 8b3d cfb3 14bd ef6f 983e cd6b 053b
000001e0: 36a8 fe3d 14bb 7c3e 68e7 843d 9ee9 f13c
000001f0: b223 af3e 4d57 a63d 8c92 0dbd 6cf2 a6bd
0.083416335 -0.011891642 -0.026161969 0.063981295 0.20638286 -0.019287502 0.1877597 0.10869972
0.008023871 0.05122853 0.013974757 -0.00037538243 0.22217 0.16683042 0.14153777 0.05663609
-0.0008661016 0.10936029 -0.12490066 0.1343942 0.17831905 0.061548784 0.048755974 0.066734225
0.10185778 -0.044359185 -0.08992479 0.15031019 0.17444447 0.20055063 -0.06937764 0.10362884
0.11715788 -0.010952711 0.03795933 0.14158033 0.12758516 -0.049425445 -0.06969673 -0.12612972
0.12028743 0.0364967 0.25667015 0.19201332 0.20278864 0.13262643 0.06302446 -0.046814743
-0.10511634 0.24500336 -0.0473381 0.07458289 -0.09658441 -0.023218293 0.17989801 0.14698344
-0.013632895 0.30177042 0.09163416 -0.05110456 -0.019390842 0.1424179 -0.054897405 0.24885292
0.109611414 -0.06390845 0.20927812 -0.033007797 -0.15605585 -0.19649942 0.095093675 0.072982155
0.023573536 -0.063055746 -0.21694097 0.0045060213 -0.14782768 -0.2578751 0.14974342 -0.11821962
0.07118232 0.09285015 -0.01865413 -0.18801382 0.090543106 0.18100916 -0.17589481 0.22523132
-0.17569368 -0.11040629 0.19920449 -0.07223173 -0.25575417 -0.18337639 0.14633025 0.04719563
0.27323785 0.15656318 0.06723497 -0.031505775 0.044006985 0.019500978 -0.044165462 0.11049138
-0.08810354 0.031722736 -0.045798276 0.2547354 0.16950907 0.1817503 0.16971946 0.28370744
0.16034874 0.102272354 0.1378806 0.04850067 0.06830464 -0.03630429 0.297729 0.0020358444
0.124344274 0.2468074 0.0648945 0.029530343 0.3420692 0.0812212 -0.034563586 -0.08151707

lstm.bias_hh_l0 f4 [128]
00000000: cfff 05be 1b88 4c3d f365 00bd 7642 573e
00000010: 483b 493e 0db6 ee3d 433b 9abd c09e 7d3c
00000020: 74f9 f53d 673f a1bd 0072 adbd 7b9b ea3d
00000030: 9da3 5e3e 614e f13c 6d01 943c edab 823d
00000040: a7f6 a1bd f8ce 7b3d 753f 4ebd 2288 513e
00000050: a844 743d aff3 d03d e00b bc3c 3c23 5bbd
00000060: 3e0a 9c3b f270 373d 51f4 013e fac7 083e
00000070: dbd5 47bd 17ab 63bc e4e0 f93d 8255 aebd
00000080: 38d9 593e 52be 1cbd 9d3d c6bd 5d63 c1bd
00000090: 068c 5e3d 036a 11bc 5751 1d3e a235 213e
000000a0: d0a5 753d 6610 483e d112 b03d 701a 4f3e
000000b0: 09a4 d83d d1d6 6c3d 302f 1b3d 046e 86bd
000000c0: 6d1b 153d 5097 a93e dc46 503d 80f9 8abc
000000d0: 5718 943d ec28 223e fb8f 04bc 15e9 01bd
000000e0: e111 b73b cd07 553e 5a57 423e 55f9 8e3b
000000f0: 4419 373d 9ea8 483e 7eda 0d3e d5e7 6a3e
00000100: 7e8a ffbc ca35 143e 722c e8bd f22f 21be
00000110: 1690 19be e2ab b5bc 7227 63bd a5e8 003e
00000120: f9a6 26be 6cf4 ea3d 7935 3ebe 1c5e bfbc
00000130: bda2 fd3d 32d4 e53c d55a 7dbc 570f 273c
00000140: 9832 e6bd bd8b 4f3d 7422 203e 3a6e 25be
00000150: bcdc a83d 0534 c6bd bab3 4cbe 534b 833d
00000160: d0c8 2bbe ee6f 55be f633 243d 8c00 2e3e
00000170: 7ba4 89be a77b aebd 0858 8ebd 8af6 b33c
00000180: 365f 9fbc 2bde ecbd 2198 94bd b9b7 fe3d
00000190: 43ba bf3e 55b0 093e f943 733c b17c 003d
000001a0: 9454 1c3e 9c3d 693e 1a4a ea3d bdd2 01bd
000001b0: 4c98 c43d e3fe 833e 7286 94bd c637 b53b
000001c0: 6973 df3d fa9f d33d 7778 7a3e f252 863d
000001d0: a685 d73d 072d 4abc 958c 6e3d 022e 85bc
000001e0: fe95 adbd 07c8 123e 1782 183e ef57 993e
000001f0: d7a8 163e e9c0 1f3e 9bc2 953d 870e bfbc
-0.13085864 0.049934488 -0.031347226 0.21021447 0.1965152 0.11655817 -0.075308345 0.0154797435
0.1201047 -0.07873421 -0.084690094 0.11455437 0.21742101 0.02945632 0.018067086 0.063804485
-0.07908373 0.061476678 -0.050353486 0.20462087 0.05963579 0.10202729 0.022954881 -0.0535004
0.004761963 0.044785447 0.12690856 0.13357535 -0.048787933 -0.0138957715 0.122010976 -0.08512403
0.21274269 -0.03826744 -0.096797206 -0.0944278 0.054332756 -0.008875373 0.1536306 0.15743116
0.059972584 0.19537506 0.08597339 0.20224929 0.10578162 0.057822052 0.0378868 -0.065639526
0.03640311 0.33123255 0.050848827 -0.016964674 0.07231205 0.15835923 -0.008090968 -0.031716425
0.005586848 0.20803757 0.18978634 0.004363219 0.04470183 0.19595572 0.1385288 0.2294
-0.031193968 0.14473644 -0.11336602 -0.15740946 -0.1499637 -0.022176687 -0.05545754 0.12588747
-0.16274633 0.11472401 -0.18575086 -0.023360305 0.123845555 0.028055284 -0.015463551 0.010196528
-0.11240119 0.050670374 0.15638143 -0.1615533 0.08245227 -0.09677891 -0.19990435 0.06410851
-0.16775823 -0.20843479 0.040088616 0.16992396 -0.268833 -0.085196786 -0.069503844 0.021968145
-0.01945458 -0.11565813 -0.07255579 0.12437386 0.37446794 0.13446172 0.014847749 0.031368915
0.15266639 0.22777408 0.11439915 -0.031695116 0.09599361 0.257804 -0.07252206 0.0055303304
0.109106846 0.103332475 0.24460016 0.06558789 0.10523538 -0.012339837 0.05823954 -0.01625729
-0.08475874 0.14334117 0.14893375 0.299499 0.14712845 0.15600933 0.07312509 -0.023322357

fc.weight f4 [8, 32]
00000000: f35d c1bd b82e 543e 8150 4f3e 25ef 393e
00000010: c21d 07be d2cc 183e ce8f 1ebe 6e14 613e
00000020: da1f 353e 8ecf 2d3e 394e dc3d b7ac 88be
00000030: 50b5 83be 459b c03d c48d 703e e169 4cbe
00000040: fb80 8bbd a82f 6a3e 3fe8 ae3d 733e 433e
00000050: 95c7 753e 9755 b5be 2697 183d 6bfd 163e
00000060: 15bd a5be 7fe5 3ebe 4b55 4b3e cf8c 25bd
00000070: 4a44 523e 35e2 a8be d935 9bbd 338b 84be
00000080: d874 5cbe 6b79 333e fa16 f63d 6b9e ca3e
00000090: ba68 66bd c0ba 17bd 2a0f 313e 4bea 3e3e
000000a0: f983 a6bc 2a32 8fbd 4441 2d3e b887 f53d
000000b0: 4edb 6dbd b1f7 9abb 1ae7 073d 29a0 40be
000000c0: 0918 a9be b699 f8bb 6762 3a3e e5d1 0f3e
000000d0: 5583 083d 7dfe a2bd 1f48 483e b8f0 8a3e
000000e0: 849b edbd f593 6c3e 1b88 723e 4cb7 30be
000000f0: 7d34 9f3e a9a7 493e 52bc b83d f0df ef3c
00000100: 28a0 f33c 6cf5 2a3c 3116 663e 3a43 9a3e
00000110: c8b4 debd 659d 88bd 9e22 2dbe c7eb 633e
00000120: 5738 28be 8214 2fbe 3a7a 5b3d 999b ae3b
00000130: dd42 273d 1dd5 2bbe 8831 a6bd b1b5 a8bc
00000140: b35e 3dbe 9961 b53d b6bf 523e 66a9 ee3c
00000150: f117 11be 1eb2 5b3e 1682 723e d9ae 2cbc
00000160: 1bd8 a0bd eb77 123e 404e d8bd 9c82 7dbd
00000170: a107 913d 27fb 1fbe 066d adbd 805c ecbd
00000180: 2426 e03c 18fb 253e 7068 fdbd b982 99bd
00000190: 0477 f53d 1272 383d 28f5 02bd 3473 a5be
000001a0: 79af 893e 007f e93d f3f5 0fbe 2af1 b13d
000001b0: 3ae1 6abe 8603 e0bc 4da5 75bd f377 58bd
000001c0: 7c5f dd3d aa84 9bbe f916 35be 2191 863e
000001d0: 2884 6e3e 3f69 84be 1de8 a2bd d474 9e3e
000001e0: bee8 34be 7dc1 2bbe 8a4b fe3d 3f33 b83d
000001f0: 6a95 393d cc2f b93e 69f3 50be 0a04 3b3c
00000200: b2f8 4f3d aefa cf3d 73aa a43d 06ac 8fbe
00000210: a75b 40be 0dc0 cebd efd0 453e f439 46be
00000220: ed37 1f3e 69be 87be 6f1e b93c 7089 69be
00000230: d405 373e b676 6d3e ded1 063e feb3 08be
00000240: 636e 833e 6559 b03e da0b 423e 9bd0 95be
00000250: 4f7e 06be 4573 91be a5b0 aabd e721 843d
00000260: 62f2 5c3c 04c0 24bd 105e 3fbe 15af a13e
00000270: d7f2 dd3c 83e8 aabd 0615 753c 06a6 1e3e
00000280: cf0f 053e 1fdd 613a 8729 563c ba8c b93e
00000290: 58f0 74bb ceb8 4c3e 3314 65be c888 853d
000002a0: 963d 41be 5441 743e 492f 8e3d 2391 8fbc
000002b0: b61c dfbd 2310 21be 90af 11be 4841 c73d
000002c0: 7f31 cbbd 6350 cdbd d74d 1e3d de24 b1bd
000002d0: 8f59 843e e55c 973d 35f6 04bd 0349 78be
000002e0: 5bcf 383e fe2d 19bc 0a2c 97bd f74c 55be
000002f0: 98d4 f7bd 2892 c3be 97f0 133e 6411 bc3c
00000300: be8b 96bd d32b 20bd f6db 01be 8bd6 afbe
00000310: c2ef d9bd cd63 2abe 49a7 0abe 48ee 68be
00000320: 4922 333d aa0f 403e 4558 b3bc 1ed4 a23e
00000330: b6e4 6d3e ef19 543d c9bd 5fbe 5318 a13e
00000340: 980c 56bd 5ac0 d3bd 628c 2cbe 383d 3a3e
00000350: 0dba 63be 77a6 443c fcd9 31bd 41da 10be
00000360: 8574 863e 1d10 9c3d e613 12be fa66 fcbd
00000370: 389e 9abe 046e 573d b753 f53d 8f6f d23e
00000380: 49c8 35be d794 fcbd 8d2b 07bd 4a50 3d3e
00000390: e268 16be 8e23 f2bd 9604 8e3e 7b71 77bd
000003a0: ad39 8bbc 9661 63be 8cfd 04be 0181 a1bd
000003b0: 941b 8abe 5aaf 603e 7d23 7a3e 96b5 13be
000003c0: d35b 37bc 93b0 40be b44b 8b3d d125 44be
000003d0: d44e 2bbe 7dfd 9abe 5e2b 05be e9ef ccbd
000003e0: f7b9 af3d fab4 683e 8e31 ef3c 102e bc3c
000003f0: d7b3 dfbd 1e63 38be cdcb 993d 7837 b5bd
-0.094417475 0.20720947 0.20245554 0.18157633 -0.13194945 0.14921883 -0.15484545 0.2198045
0.17687932 0.16973707 0.10757107 -0.2669427 -0.25724268 0.09404615 0.2349158 -0.19962265
-0.068117104 0.22869742 0.08540391 0.19066791 0.24001916 -0.35416862 0.03725352 0.14745109
-0.3237082 -0.18642233 0.19856755 -0.04041749 0.20533863 -0.32985082 -0.0757863 -0.2588745
-0.21528947 0.17526786 0.12016101 0.39573988 -0.05625222 -0.037043333 0.17290941 0.18644063
-0.020326601 -0.0699199 0.16919428 0.11988777 -0.058070473 -0.004729234 0.03317938 -0.18811096
-0.3302615 -0.007586683 0.182016 0.14044912 0.033328373 -0.07958696 0.19558762 0.2713678
-0.11601928 0.23103316 0.23684733 -0.17257422 0.31094733 0.19692864 0.09020294 0.029281586
0.029739454 0.01043449 0.22469403 0.30129415 -0.10874325 -0.066706456 -0.16907737 0.2225791
-0.16427742 -0.17097667 0.05358336 0.0053286073 0.04083525 -0.16780515 -0.08114916 -0.02059445
-0.18493156 0.08856506 0.20580944 0.02913351 -0.14169289 0.21454665 0.23682436 -0.010539734
-0.07853719 0.14303558 -0.105618 -0.061892137 0.07081533 -0.15623151 -0.0846806 -0.115410805
0.027361937 0.16209066 -0.123734355 -0.074956365 0.11985591 0.04503066 -0.03197208 -0.32314456
0.26891688 0.114011765 -0.14058666 0.086885765 -0.2293748 -0.02734543 -0.059972096 -0.052848767
0.10809228 -0.30374652 -0.17684545 0.262826 0.23292601 -0.25861546 -0.07954428 0.30948508
-0.17666909 -0.16773029 0.12416752 0.089941494 0.045308508 0.3616928 -0.20405354 0.011414537
0.050774284 0.10155235 0.08040323 -0.2806093 -0.18784963 -0.100952245 0.19317983 -0.19358045
0.15548678 -0.2651246 0.02259752 -0.22806334 0.17873317 0.23189816 0.13165995 -0.13349912
0.25670156 0.34443203 0.18949834 -0.29260716 -0.1313412 -0.28408256 -0.083344735 0.06451779
0.013485523 -0.040222183 -0.18688226 0.3157889 0.027093334 -0.08345129 0.014958626 0.1549302
0.12994312 0.00086160185 0.013071424 0.36240178 -0.0037374701 0.19992372 -0.22370987 0.065202296
-0.1887115 0.23853046 0.06942613 -0.017525261 -0.10894148 -0.15728812 -0.14227128 0.09729248
-0.0992155 -0.10025098 0.038648453 -0.0864961 0.25849578 0.07390765 -0.032461364 -0.24246602
0.1804785 -0.009349344 -0.07381447 -0.20830141 -0.12101096 -0.38197446 0.14447246 0.022957511
-0.073508725 -0.039104294 -0.12681565 -0.3434337 -0.10641433 -0.16639633 -0.13540377 -0.22747147
0.04373387 0.18755975 -0.021892676 0.31802458 0.23231778 0.051782545 -0.21849741 0.3146387
-0.052258104 -0.103394225 -0.16850427 0.18187416 -0.22238941 0.012002579 -0.043420777 -0.14145757
0.26260772 0.07620261 -0.14265403 -0.12324329 -0.30198836 0.052595153 0.11978858 0.41100737
-0.17752184 -0.123330764 -0.033000518 0.18487659 -0.14688447 -0.11823188 0.27737874 -0.060410958
-0.016995275 -0.22205195 -0.12987345 -0.07885934 -0.26974165 0.21941891 0.244276 -0.14424738
-0.011191326 -0.18817358 0.068015486 -0.19155051 -0.1672929 -0.3027152 -0.13004825 -0.10006697
0.08580392 0.22725287 0.029198434 0.022971183 -0.109229736 -0.1800656 0.07509575 -0.088484704

fc.bias f4 [8]
00000000: c241 933d ffd8 f4bd 9dfa 24be db50 e33d
00000010: a89e 12be af6e 7b3d 6acf ddbd 6a00 10be
0.07190277 -0.11955451 -0.16111226 0.11099406 -0.14318335 0.061384853 -0.10830577 -0.14062658
